…
Colocations handled automatically by placer.
WARNING:tensorflow:From /usr/local/lib/python3.5/dist-packages/keras/backend/tensorflow_backend.py:3445: calling dropout (from tensorflow.python.ops.nn_ops) with keep_prob is deprecated and will be removed in a future version.
Instructions for updating:
Please use `rate` instead of `keep_prob`. Rate should be set to `rate = 1 - keep_prob`.
_________________________________________________________________
Layer (type)                 Output Shape              Param #   
=================================================================
conv2d_1 (Conv2D)            (None, 19, 13, 16)        160       
_________________________________________________________________
conv2d_2 (Conv2D)            (None, 19, 13, 32)        4640      
_________________________________________________________________
conv2d_3 (Conv2D)            (None, 19, 13, 64)        18496     
_________________________________________________________________
conv2d_4 (Conv2D)            (None, 19, 13, 128)       73856     
_________________________________________________________________
max_pooling2d_1 (MaxPooling2 (None, 9, 6, 128)         0         
_________________________________________________________________
dropout_1 (Dropout)          (None, 9, 6, 128)         0         
_________________________________________________________________
flatten_1 (Flatten)          (None, 6912)              0         
_________________________________________________________________
dense_1 (Dense)              (None, 128)               884864    
_________________________________________________________________
dense_2 (Dense)              (None, 64)                8256      
_________________________________________________________________
dense_3 (Dense)              (None, 8)                 520       
=================================================================
Total params: 990,792
Trainable params: 990,792
Non-trainable params: 0
_________________________________________________________________
WARNING:tensorflow:From /usr/local/lib/python3.5/dist-packages/tensorflow/python/ops/math_ops.py:3066: to_int32 (from tensorflow.python.ops.math_ops) is deprecated and will be removed in a future version.
…
Colocations handled automatically by placer.
WARNING:tensorflow:From /usr/local/lib/python3.5/dist-packages/keras/backend/tensorflow_backend.py:3445: calling dropout (from tensorflow.python.ops.nn_ops) with keep_prob is deprecated and will be removed in a future version.
Instructions for updating:
Please use `rate` instead of `keep_prob`. Rate should be set to `rate = 1 - keep_prob`.
_________________________________________________________________
Layer (type)                 Output Shape              Param #   
=================================================================
lstm_1 (LSTM)                (None, 19, 128)           72704     
_________________________________________________________________
lstm_2 (LSTM)                (None, 19, 128)           131584    
_________________________________________________________________
dropout_1 (Dropout)          (None, 19, 128)           0         
_________________________________________________________________
time_distributed_1 (TimeDist (None, 19, 64)            8256      
_________________________________________________________________
time_distributed_2 (TimeDist (None, 19, 32)            2080      
_________________________________________________________________
time_distributed_3 (TimeDist (None, 19, 16)            528       
_________________________________________________________________
time_distributed_4 (TimeDist (None, 19, 8)             136       
_________________________________________________________________
flatten_1 (Flatten)          (None, 152)               0         
_________________________________________________________________
dense_5 (Dense)              (None, 8)                 1224      
=================================================================
Total params: 216,512
Trainable params: 216,512
Non-trainable params: 0
_________________________________________________________________
WARNING:tensorflow:From /usr/local/lib/python3.5/dist-packages/tensorflow/python/ops/math_ops.py:3066: to_int32 (from tensorflow.python.ops.math_ops) is deprecated and will be removed in a future version.
…
